…
Max Number of Epochs: 10 
Number of Epochs Used: 10 
Patience: 8 
Training Time: 00:00:38:12 
Training History: 
     loss      mse  val_loss  val_mse
… ---------------------------------------------------  
Model Architecture:
checkModel: "functional_1"
┏━━━━━━━━━━━━━━━━━━━━━━━━━━━━━━━┳━━━━━━━━━━━━━━━━━━━━━━━━━━━┳━━━━━━━━━━━━━━━━━┳━━━━━━━━━━━━━━━━━━━━━━━━━━━━┓
┃ Layer (type)                  ┃ Output Shape              ┃         Param # ┃ Connected to               ┃
┡━━━━━━━━━━━━━━━━━━━━━━━━━━━━━━━╇━━━━━━━━━━━━━━━━━━━━━━━━━━━╇━━━━━━━━━━━━━━━━━╇━━━━━━━━━━━━━━━━━━━━━━━━━━━━┩
│ jet_input (InputLayer)        │ (None, 6, 6)              │               0 │ -                          │
├───────────────────────────────┼───────────────────────────┼─────────────────┼────────────────────────────┤
│ other_input (InputLayer)      │ (None, 7)                 │               0 │ -                          │
├───────────────────────────────┼───────────────────────────┼─────────────────┼────────────────────────────┤
│ flattened_jets (Flatten)      │ (None, 36)                │               0 │ jet_input[0][0]            │
├───────────────────────────────┼───────────────────────────┼─────────────────┼────────────────────────────┤
│ concat_jets_other             │ (None, 43)                │               0 │ other_input[0][0],         │
│ (Concatenate)                 │                           │                 │ flattened_jets[0][0]       │
├───────────────────────────────┼───────────────────────────┼─────────────────┼────────────────────────────┤
│ dense256_1 (Dense)            │ (None, 256)               │          11,264 │ concat_jets_other[0][0]    │
├───────────────────────────────┼───────────────────────────┼─────────────────┼────────────────────────────┤
│ masking_jets (Masking)        │ (None, 6, 6)              │               0 │ jet_input[0][0]            │
├───────────────────────────────┼───────────────────────────┼─────────────────┼────────────────────────────┤
│ dense256_2 (Dense)            │ (None, 256)               │          65,792 │ dense256_1[0][0]           │
├───────────────────────────────┼───────────────────────────┼─────────────────┼────────────────────────────┤
│ reshape_masked_jets (Reshape) │ (None, 6, 6)              │               0 │ masking_jets[0][0]         │
├───────────────────────────────┼───────────────────────────┼─────────────────┼────────────────────────────┤
│ dense6_sigmoid (Dense)        │ (None, 6)                 │           1,542 │ dense256_2[0][0]           │
├───────────────────────────────┼───────────────────────────┼─────────────────┼────────────────────────────┤
│ TDDense128 (TimeDistributed)  │ (None, 6, 128)            │             896 │ reshape_masked_jets[0][0]  │
├───────────────────────────────┼───────────────────────────┼─────────────────┼────────────────────────────┤
│ reshape (Reshape)             │ (None, 6, 1)              │               0 │ dense6_sigmoid[0][0]       │
├───────────────────────────────┼───────────────────────────┼─────────────────┼────────────────────────────┤
│ TDDense64 (TimeDistributed)   │ (None, 6, 64)             │           8,256 │ TDDense128[0][0]           │
├───────────────────────────────┼───────────────────────────┼─────────────────┼────────────────────────────┤
│ weight_jets (Multiply)        │ (None, 6, 64)             │               0 │ reshape[0][0],             │
│                               │                           │                 │ TDDense64[0][0]            │
├───────────────────────────────┼───────────────────────────┼─────────────────┼────────────────────────────┤
│ dense128 (Dense)              │ (None, 128)               │           1,024 │ other_input[0][0]          │
├───────────────────────────────┼───────────────────────────┼─────────────────┼────────────────────────────┤
│ TDDense256_1                  │ (None, 6, 256)            │          16,640 │ weight_jets[0][0]          │
│ (TimeDistributed)             │                           │                 │                            │
├───────────────────────────────┼───────────────────────────┼─────────────────┼────────────────────────────┤
│ dense64 (Dense)               │ (None, 64)                │           8,256 │ dense128[0][0]             │
├───────────────────────────────┼───────────────────────────┼─────────────────┼────────────────────────────┤
│ TDDense256_2                  │ (None, 6, 256)            │          65,792 │ TDDense256_1[0][0]         │
│ (TimeDistributed)             │                           │                 │                            │
├───────────────────────────────┼───────────────────────────┼─────────────────┼────────────────────────────┤
│ flattened_other (Flatten)     │ (None, 64)                │               0 │ dense64[0][0]              │
├───────────────────────────────┼───────────────────────────┼─────────────────┼────────────────────────────┤
│ flattened_weighted_jets       │ (None, 1536)              │               0 │ TDDense256_2[0][0]         │
│ (Flatten)                     │                           │                 │                            │
├───────────────────────────────┼───────────────────────────┼─────────────────┼────────────────────────────┤
│ concat_everything             │ (None, 1600)              │               0 │ flattened_other[0][0],     │
│ (Concatenate)                 │                           │                 │ flattened_weighted_jets[0… │
├───────────────────────────────┼───────────────────────────┼─────────────────┼────────────────────────────┤
│ ldense256 (Dense)             │ (None, 256)               │         409,856 │ concat_everything[0][0]    │
├───────────────────────────────┼───────────────────────────┼─────────────────┼────────────────────────────┤
│ ldense128 (Dense)             │ (None, 128)               │          32,896 │ ldense256[0][0]            │
├───────────────────────────────┼───────────────────────────┼─────────────────┼────────────────────────────┤
│ lep_output (Dense)            │ (None, 10)                │           1,290 │ ldense128[0][0]            │
├───────────────────────────────┼───────────────────────────┼─────────────────┼────────────────────────────┤
│ concatenate (Concatenate)     │ (None, 1610)              │               0 │ lep_output[0][0],          │
│                               │                           │                 │ concat_everything[0][0]    │
├───────────────────────────────┼───────────────────────────┼─────────────────┼────────────────────────────┤
│ hdense256 (Dense)             │ (None, 256)               │         412,416 │ concatenate[0][0]          │
├───────────────────────────────┼───────────────────────────┼─────────────────┼────────────────────────────┤
│ hdense128 (Dense)             │ (None, 128)               │          32,896 │ hdense256[0][0]            │
├───────────────────────────────┼───────────────────────────┼─────────────────┼────────────────────────────┤
│ had_output (Dense)            │ (None, 15)                │           1,935 │ hdense128[0][0]            │
├───────────────────────────────┼───────────────────────────┼─────────────────┼────────────────────────────┤
│ output (Concatenate)          │ (None, 25)                │               0 │ had_output[0][0],          │
│                               │                           │                 │ lep_output[0][0]           │
└───────────────────────────────┴───────────────────────────┴─────────────────┴────────────────────────────┘
 Total params: 3,212,254 (12.25 MB)
 Trainable params: 1,070,751 (4.08 MB)
 Non-trainable params: 0 (0.00 B)
 Optimizer params: 2,141,503 (8.17 MB)
