…
 Layer (type)                   Output Shape         Param #     Connected to                     Trainable  
=============================================================================================================
 jet_input (InputLayer)         [(None, 7, 6)]       0           []                               Y          
                                                                                                             
 other_input (InputLayer)       [(None, 7)]          0           []                               Y          
                                                                                                             
 flattened_jets (Flatten)       (None, 42)           0           ['jet_input[0][0]']              Y          
                                                                                                             
 concat_jets_other (Concatenate  (None, 49)          0           ['other_input[0][0]',            Y          
 )                                                                'flattened_jets[0][0]']                    
                                                                                                             
 dense256_1 (Dense)             (None, 256)          12800       ['concat_jets_other[0][0]']      Y          
                                                                                                             
 masking_jets (Masking)         (None, 7, 6)         0           ['jet_input[0][0]']              Y          
                                                                                                             
 dense256_2 (Dense)             (None, 256)          65792       ['dense256_1[0][0]']             Y          
                                                                                                             
 reshape_masked_jets (Reshape)  (None, 7, 6)         0           ['masking_jets[0][0]']           Y          
                                                                                                             
 dense6_sigmoid (Dense)         (None, 7)            1799        ['dense256_2[0][0]']             Y          
                                                                                                             
 TDDense128 (TimeDistributed)   (None, 7, 128)       896         ['reshape_masked_jets[0][0]']    Y          
                                                                                                             
 reshape (Reshape)              (None, 7, 1)         0           ['dense6_sigmoid[0][0]']         Y          
                                                                                                             
 TDDense64 (TimeDistributed)    (None, 7, 64)        8256        ['TDDense128[0][0]']             Y          
                                                                                                             
 weight_jets (Multiply)         (None, 7, 64)        0           ['reshape[0][0]',                Y          
                                                                  'TDDense64[0][0]']                         
                                                                                                             
 dense128 (Dense)               (None, 128)          1024        ['other_input[0][0]']            Y          
                                                                                                             
 TDDense256_1 (TimeDistributed)  (None, 7, 256)      16640       ['weight_jets[0][0]']            Y          
                                                                                                             
 dense64 (Dense)                (None, 64)           8256        ['dense128[0][0]']               Y          
                                                                                                             
 TDDense256_2 (TimeDistributed)  (None, 7, 256)      65792       ['TDDense256_1[0][0]']           Y          
                                                                                                             
 flattened_other (Flatten)      (None, 64)           0           ['dense64[0][0]']                Y          
                                                                                                             
 flattened_weighted_jets (Flatt  (None, 1792)        0           ['TDDense256_2[0][0]']           Y          
 en)                                                                                                         
                                                                                                             
 concat_everything (Concatenate  (None, 1856)        0           ['flattened_other[0][0]',        Y          
 )                                                                'flattened_weighted_jets[0][0]             
                                                                 ']                                          
                                                                                                             
 ldense256 (Dense)              (None, 256)          475392      ['concat_everything[0][0]']      Y          
                                                                                                             
 ldense128 (Dense)              (None, 128)          32896       ['ldense256[0][0]']              Y          
                                                                                                             
 lep_output (Dense)             (None, 10)           1290        ['ldense128[0][0]']              Y          
                                                                                                             
 concatenate (Concatenate)      (None, 1866)         0           ['lep_output[0][0]',             Y          
                                                                  'concat_everything[0][0]']                 
                                                                                                             
 hdense256 (Dense)              (None, 256)          477952      ['concatenate[0][0]']            Y          
                                                                                                             
 hdense128 (Dense)              (None, 128)          32896       ['hdense256[0][0]']              Y          
                                                                                                             
 had_output (Dense)             (None, 10)           1290        ['hdense128[0][0]']              Y          
                                                                                                             
 output (Concatenate)           (None, 20)           0           ['had_output[0][0]',             Y          
                                                                  'lep_output[0][0]']                        
                                                                                                             
=============================================================================================================
Total params: 1,202,971
…
