…
 Layer (type)                   Output Shape         Param #     Connected to                     
==================================================================================================
 jet_input (InputLayer)         [(None, 6, 6)]       0           []                               
                                                                                                  
 other_input (InputLayer)       [(None, 7)]          0           []                               
                                                                                                  
 flattened_jets (Flatten)       (None, 36)           0           ['jet_input[0][0]']              
                                                                                                  
 concat_jets_other (Concatenate  (None, 43)          0           ['other_input[0][0]',            
 )                                                                'flattened_jets[0][0]']         
                                                                                                  
 dense256_1 (Dense)             (None, 256)          11264       ['concat_jets_other[0][0]']      
                                                                                                  
 masking_jets (Masking)         (None, 6, 6)         0           ['jet_input[0][0]']              
                                                                                                  
 dense256_2 (Dense)             (None, 256)          65792       ['dense256_1[0][0]']             
                                                                                                  
 reshape_masked_jets (Reshape)  (None, 6, 6)         0           ['masking_jets[0][0]']           
                                                                                                  
 dense6_sigmoid (Dense)         (None, 6)            1542        ['dense256_2[0][0]']             
                                                                                                  
 TDDense128 (TimeDistributed)   (None, 6, 128)       896         ['reshape_masked_jets[0][0]']    
                                                                                                  
 reshape (Reshape)              (None, 6, 1)         0           ['dense6_sigmoid[0][0]']         
                                                                                                  
 TDDense64 (TimeDistributed)    (None, 6, 64)        8256        ['TDDense128[0][0]']             
                                                                                                  
 weight_jets (Multiply)         (None, 6, 64)        0           ['reshape[0][0]',                
                                                                  'TDDense64[0][0]']              
                                                                                                  
 dense128 (Dense)               (None, 128)          1024        ['other_input[0][0]']            
                                                                                                  
 TDDense256_1 (TimeDistributed)  (None, 6, 256)      16640       ['weight_jets[0][0]']            
                                                                                                  
 dense64 (Dense)                (None, 64)           8256        ['dense128[0][0]']               
                                                                                                  
 TDDense256_2 (TimeDistributed)  (None, 6, 256)      65792       ['TDDense256_1[0][0]']           
                                                                                                  
 flattened_other (Flatten)      (None, 64)           0           ['dense64[0][0]']                
                                                                                                  
 flattened_weighted_jets (Flatt  (None, 1536)        0           ['TDDense256_2[0][0]']           
 en)                                                                                              
                                                                                                  
 concat_everything (Concatenate  (None, 1600)        0           ['flattened_other[0][0]',        
 )                                                                'flattened_weighted_jets[0][0]']
                                                                                                  
 ldense256 (Dense)              (None, 256)          409856      ['concat_everything[0][0]']      
                                                                                                  
 ldense128 (Dense)              (None, 128)          32896       ['ldense256[0][0]']              
                                                                                                  
 lep_output (Dense)             (None, 10)           1290        ['ldense128[0][0]']              
                                                                                                  
 concatenate (Concatenate)      (None, 1610)         0           ['lep_output[0][0]',             
                                                                  'concat_everything[0][0]']      
                                                                                                  
 hdense256 (Dense)              (None, 256)          412416      ['concatenate[0][0]']            
                                                                                                  
 hdense128 (Dense)              (None, 128)          32896       ['hdense256[0][0]']              
                                                                                                  
 had_output (Dense)             (None, 15)           1935        ['hdense128[0][0]']              
                                                                                                  
 output (Concatenate)           (None, 25)           0           ['had_output[0][0]',             
                                                                  'lep_output[0][0]']             
                                                                                                  
==================================================================================================
Total params: 1,070,751
Trainable params: 1,070,751
Non-trainable params: 0
…
